…
2017-12-12 21:48:39.673937: I tensorflow/core/platform/cpu_feature_guard.cc:137] Your CPU supports instructions that this TensorFlow binary was not compiled to use: SSE4.1 SSE4.2 AVX AVX2 FMA
Updating Model file from 30000 to latest format...
Loaded model gait9dof18musc_Thelen_BigSpheres.osim from file /home/rlipkis/anaconda3/envs/opensim-rl/lib/python2.7/site-packages/osim/env/../models/gait9dof18musc.osim
_________________________________________________________________
Layer (type)                 Output Shape              Param #   
=================================================================
flatten_1 (Flatten)          (None, 41)                0         
_________________________________________________________________
dense_1 (Dense)              (None, 32)                1344      
_________________________________________________________________
leaky_re_lu_1 (LeakyReLU)    (None, 32)                0         
_________________________________________________________________
dense_2 (Dense)              (None, 32)                1056      
_________________________________________________________________
leaky_re_lu_2 (LeakyReLU)    (None, 32)                0         
_________________________________________________________________
dense_3 (Dense)              (None, 32)                1056      
_________________________________________________________________
leaky_re_lu_3 (LeakyReLU)    (None, 32)                0         
_________________________________________________________________
dense_4 (Dense)              (None, 18)                594       
_________________________________________________________________
activation_1 (Activation)    (None, 18)                0         
=================================================================
Total params: 4,050
Trainable params: 4,050
Non-trainable params: 0
_________________________________________________________________
None
__________________________________________________________________________________________________
Layer (type)                    Output Shape         Param #     Connected to                     
==================================================================================================
observation_input (InputLayer)  (None, 1, 41)        0                                            
__________________________________________________________________________________________________
action_input (InputLayer)       (None, 18)           0                                            
__________________________________________________________________________________________________
flatten_2 (Flatten)             (None, 41)           0           observation_input[0][0]          
__________________________________________________________________________________________________
concatenate_1 (Concatenate)     (None, 59)           0           action_input[0][0]               
                                                                 flatten_2[0][0]                  
__________________________________________________________________________________________________
dense_5 (Dense)                 (None, 64)           3840        concatenate_1[0][0]              
__________________________________________________________________________________________________
leaky_re_lu_4 (LeakyReLU)       (None, 64)           0           dense_5[0][0]                    
__________________________________________________________________________________________________
dense_6 (Dense)                 (None, 64)           4160        leaky_re_lu_4[0][0]              
__________________________________________________________________________________________________
leaky_re_lu_5 (LeakyReLU)       (None, 64)           0           dense_6[0][0]                    
__________________________________________________________________________________________________
dense_7 (Dense)                 (None, 64)           4160        leaky_re_lu_5[0][0]              
__________________________________________________________________________________________________
leaky_re_lu_6 (LeakyReLU)       (None, 64)           0           dense_7[0][0]                    
__________________________________________________________________________________________________
dense_8 (Dense)                 (None, 1)            65          leaky_re_lu_6[0][0]              
__________________________________________________________________________________________________
activation_2 (Activation)       (None, 1)            0           dense_8[0][0]                    
==================================================================================================
Total params: 12,225
Trainable params: 12,225
Non-trainable params: 0
__________________________________________________________________________________________________
None
Training for 500000 steps ...
Interval 1 (0 steps performed)

    1/10000 [..............................] - ETA: 49:36 - reward: 8.0932e-04
…
